Model: "custom_cnn"
_________________________________________________________________
Layer (type)                 Output Shape              Param #   
=================================================================
input_40 (InputLayer)        [(None, 256, 256, 3)]     0         
_________________________________________________________________
conv_0_0 (Conv2D)            (None, 254, 254, 32)      896       
_________________________________________________________________
conv_0_1 (Conv2D)            (None, 252, 252, 32)      9248      
_________________________________________________________________
mp_0 (MaxPooling2D)          (None, 126, 126, 32)      0         
_________________________________________________________________
conv_1_0 (Conv2D)            (None, 124, 124, 64)      18496     
_________________________________________________________________
conv_1_1 (Conv2D)            (None, 122, 122, 64)      36928     
_________________________________________________________________
mp_1 (MaxPooling2D)          (None, 61, 61, 64)        0         
_________________________________________________________________
conv_2_0 (Conv2D)            (None, 59, 59, 128)       73856     
_________________________________________________________________
conv_2_1 (Conv2D)            (None, 57, 57, 128)       147584    
_________________________________________________________________
mp_2 (MaxPooling2D)          (None, 28, 28, 128)       0         
_________________________________________________________________
conv_3_0 (Conv2D)            (None, 26, 26, 256)       295168    
_________________________________________________________________
conv_3_1 (Conv2D)            (None, 24, 24, 256)       590080    
_________________________________________________________________
mp_3 (MaxPooling2D)          (None, 12, 12, 256)       0         
_________________________________________________________________
flatten (Flatten)            (None, 36864)             0         
_________________________________________________________________
output (Dense)               (None, 1)                 36865     
=================================================================
Total params: 1,209,121
Trainable params: 1,209,121
Non-trainable params: 0
_________________________________________________________________
