Model: "custom/cnn_in.256.256.3_cl.2.1_f.32_ck.3.3_bn_p.max_ps.2.2_pstr.2.2"
_________________________________________________________________
Layer (type)                 Output Shape              Param #   
=================================================================
input (InputLayer)           [(None, 256, 256, 3)]     0         
_________________________________________________________________
conv_0_0 (Conv2D)            (None, 256, 256, 32)      896       
_________________________________________________________________
bn_0_0 (BatchNormalization)  (None, 256, 256, 32)      128       
_________________________________________________________________
conv_0_0_relu (Activation)   (None, 256, 256, 32)      0         
_________________________________________________________________
mp_0 (MaxPooling2D)          (None, 128, 128, 32)      0         
_________________________________________________________________
conv_1_0 (Conv2D)            (None, 128, 128, 64)      18496     
_________________________________________________________________
bn_1_0 (BatchNormalization)  (None, 128, 128, 64)      256       
_________________________________________________________________
conv_1_0_relu (Activation)   (None, 128, 128, 64)      0         
_________________________________________________________________
mp_1 (MaxPooling2D)          (None, 64, 64, 64)        0         
_________________________________________________________________
flatten (Flatten)            (None, 262144)            0         
_________________________________________________________________
output (Dense)               (None, 1)                 262145    
=================================================================
Total params: 281,921
Trainable params: 281,729
Non-trainable params: 192
_________________________________________________________________
