Model: "custom_cnn"
_________________________________________________________________
Layer (type)                 Output Shape              Param #   
=================================================================
input_38 (InputLayer)        [(None, 256, 256, 3)]     0         
_________________________________________________________________
conv_0_0 (Conv2D)            (None, 254, 254, 32)      896       
_________________________________________________________________
conv_0_1 (Conv2D)            (None, 252, 252, 32)      9248      
_________________________________________________________________
mp_0 (MaxPooling2D)          (None, 126, 126, 32)      0         
_________________________________________________________________
conv_1_0 (Conv2D)            (None, 124, 124, 64)      18496     
_________________________________________________________________
conv_1_1 (Conv2D)            (None, 122, 122, 64)      36928     
_________________________________________________________________
mp_1 (MaxPooling2D)          (None, 61, 61, 64)        0         
_________________________________________________________________
flatten (Flatten)            (None, 238144)            0         
_________________________________________________________________
output (Dense)               (None, 1)                 238145    
=================================================================
Total params: 303,713
Trainable params: 303,713
Non-trainable params: 0
_________________________________________________________________
